…
Num GPUs Available:  1
paths:	 /home/harin/split/on_road_train_color 	 /home/harin/split/on_road_train_mask

NOTE 	color_img_array: 272 	mask_img_array: 272 

paths:	 /home/harin/split/on_road_test_color 	 /home/harin/split/on_road_test_mask

NOTE 	color_img_array: 85 	mask_img_array: 85 

__________________________________________________________________________________________________
Layer (type)                    Output Shape         Param #     Connected to                     
==================================================================================================
input_1 (InputLayer)            (None, 352, 640, 3)  0                                            
__________________________________________________________________________________________________
conv2d_1 (Conv2D)               (None, 352, 640, 64) 1792        input_1[0][0]                    
__________________________________________________________________________________________________
conv2d_2 (Conv2D)               (None, 352, 640, 64) 36928       conv2d_1[0][0]                   
__________________________________________________________________________________________________
max_pooling2d_1 (MaxPooling2D)  (None, 176, 320, 64) 0           conv2d_2[0][0]                   
__________________________________________________________________________________________________
conv2d_3 (Conv2D)               (None, 176, 320, 128 73856       max_pooling2d_1[0][0]            
__________________________________________________________________________________________________
conv2d_4 (Conv2D)               (None, 176, 320, 128 147584      conv2d_3[0][0]                   
__________________________________________________________________________________________________
max_pooling2d_2 (MaxPooling2D)  (None, 88, 160, 128) 0           conv2d_4[0][0]                   
__________________________________________________________________________________________________
conv2d_5 (Conv2D)               (None, 88, 160, 256) 295168      max_pooling2d_2[0][0]            
__________________________________________________________________________________________________
conv2d_6 (Conv2D)               (None, 88, 160, 256) 590080      conv2d_5[0][0]                   
__________________________________________________________________________________________________
max_pooling2d_3 (MaxPooling2D)  (None, 44, 80, 256)  0           conv2d_6[0][0]                   
__________________________________________________________________________________________________
conv2d_7 (Conv2D)               (None, 44, 80, 512)  1180160     max_pooling2d_3[0][0]            
__________________________________________________________________________________________________
conv2d_8 (Conv2D)               (None, 44, 80, 512)  2359808     conv2d_7[0][0]                   
__________________________________________________________________________________________________
dropout_1 (Dropout)             (None, 44, 80, 512)  0           conv2d_8[0][0]                   
__________________________________________________________________________________________________
max_pooling2d_4 (MaxPooling2D)  (None, 22, 40, 512)  0           dropout_1[0][0]                  
__________________________________________________________________________________________________
conv2d_9 (Conv2D)               (None, 22, 40, 1024) 4719616     max_pooling2d_4[0][0]            
__________________________________________________________________________________________________
conv2d_10 (Conv2D)              (None, 22, 40, 1024) 9438208     conv2d_9[0][0]                   
__________________________________________________________________________________________________
dropout_2 (Dropout)             (None, 22, 40, 1024) 0           conv2d_10[0][0]                  
__________________________________________________________________________________________________
up_sampling2d_1 (UpSampling2D)  (None, 44, 80, 1024) 0           dropout_2[0][0]                  
__________________________________________________________________________________________________
conv2d_11 (Conv2D)              (None, 44, 80, 512)  2097664     up_sampling2d_1[0][0]            
__________________________________________________________________________________________________
concatenate_1 (Concatenate)     (None, 44, 80, 1024) 0           dropout_1[0][0]                  
                                                                 conv2d_11[0][0]                  
__________________________________________________________________________________________________
conv2d_12 (Conv2D)              (None, 44, 80, 512)  4719104     concatenate_1[0][0]              
__________________________________________________________________________________________________
conv2d_13 (Conv2D)              (None, 44, 80, 512)  2359808     conv2d_12[0][0]                  
__________________________________________________________________________________________________
up_sampling2d_2 (UpSampling2D)  (None, 88, 160, 512) 0           conv2d_13[0][0]                  
__________________________________________________________________________________________________
conv2d_14 (Conv2D)              (None, 88, 160, 256) 524544      up_sampling2d_2[0][0]            
__________________________________________________________________________________________________
concatenate_2 (Concatenate)     (None, 88, 160, 512) 0           conv2d_6[0][0]                   
                                                                 conv2d_14[0][0]                  
__________________________________________________________________________________________________
conv2d_15 (Conv2D)              (None, 88, 160, 256) 1179904     concatenate_2[0][0]              
__________________________________________________________________________________________________
conv2d_16 (Conv2D)              (None, 88, 160, 256) 590080      conv2d_15[0][0]                  
__________________________________________________________________________________________________
up_sampling2d_3 (UpSampling2D)  (None, 176, 320, 256 0           conv2d_16[0][0]                  
__________________________________________________________________________________________________
conv2d_17 (Conv2D)              (None, 176, 320, 128 131200      up_sampling2d_3[0][0]            
…
